data/results/Multi-Model-Average/m_correlation_Multi-Model-Average.npy (npy, 37120 bytes, 1 tensors)

array f8 [68, 68]
1.0 -0.14444444444444446 0.52 0.4611111111111111 0.27777777777777785 0.30000000000000004 0.1666666666666667 0.1888888888888889
0.30000000000000004 0.33888888888888896 -0.5611111111111111 0.5444444444444444 0.61 0.22222222222222224 0.41111111111111115 0.4611111111111111
0.2888888888888889 -0.4388888888888889 0.3277777777777779 0.0 0.37222222222222223 0.30777777777777776 0.5366666666666667 0.6111111111111112
0.027777777777777787 0.8000000000000002 -0.24999999999999997 0.4033333333333333 0.4444444444444445 0.4822222222222223 0.3166666666666667 0.6355555555555554
0.3055555555555556 0.5944444444444444 0.3666666666666667 -0.13333333333333333 0.4000000000000001 0.44222222222222224 0.37222222222222223 -0.43333333333333335
0.25555555555555554 0.25555555555555554 0.7777777777777778 0.5055555555555554 0.4166666666666667 0.37000000000000005 0.5966666666666667 0.3111111111111111
0.4000000000000001 0.39999999999999997 0.8000000000000002 0.5222222222222221 -0.33888888888888885 0.01666666666666668 0.32222222222222224 0.4055555555555556
0.8000000000000002 -0.49444444444444446 0.37222222222222223 0.05555555555555556 0.4055555555555556 0.48888888888888893 0.2722222222222222 0.3888888888888889
0.5177777777777778 -0.6222222222222223 0.4655555555555555 0.21777777777777776 0.19999999999999998 1.0 0.7222222222222223 -0.2111111111111111
0.1777777777777778 -0.32222222222222213 -0.10555555555555556 -0.38333333333333336 -0.28888888888888886 -0.45555555555555566 -0.6944444444444445 0.2833333333333333
0.1944444444444445 -0.5111111111111111 0.15555555555555559 0.45555555555555555 0.7222222222222223 -0.7166666666666667 -0.09999999999999999 -0.3
-0.005555555555555518 -0.4666666666666666 -0.0222222222222222 -0.03333333333333333 -0.6277777777777778 -0.061111111111111095 -0.8000000000000002 0.061111111111111116
0.5055555555555556 0.18333333333333332 0.10000000000000002 -0.5722222222222223 -0.04444444444444443 -0.011111111111111108 0.47222222222222215 -0.6166666666666666
-0.4722222222222223 -0.26111111111111107 -0.04444444444444445 -0.7055555555555557 -0.55 -0.4611111111111111 -0.033333333333333305 -0.04999999999999998
-0.005555555555555518 -0.32777777777777783 0.20000000000000004 -0.5944444444444444 0.7222222222222223 0.3866666666666667 0.11666666666666668 0.3833333333333333
0.5555555555555555 -0.5666666666666668 0.4833333333333334 -0.6555555555555554 -0.03333333333333332 -0.16666666666666655 0.25 -0.37222222222222223
-0.3611111111111111 -0.5722222222222223 -0.24444444444444438 -0.005555555555555536 -0.3166666666666666 -0.6944444444444445 0.13888888888888892 -0.3444444444444445
0.6111111111111112 0.7222222222222223 1.0 0.5466666666666667 0.11111111111111112 0.2166666666666667 -0.0055555555555555315 0.2333333333333334
0.06111111111111112 -0.15555555555555556 -0.7666666666666666 0.7388888888888889 0.4977777777777778 0.5177777777777778 0.59 0.5066666666666667
0.5888888888888889 -0.688888888888889 0.2944444444444445 -0.3055555555555556 0.5288888888888889 0.0388888888888889 0.5511111111111111 0.36111111111111116
-0.37222222222222223 0.35000000000000003 -0.7388888888888889 0.5877777777777777 0.44222222222222224 0.5277777777777778 0.5688888888888889 -0.31666666666666665
0.4811111111111111 0.2888888888888889 0.36111111111111116 -0.5444444444444444 0.1277777777777778 0.6211111111111111 0.18333333333333335 -0.7777777777777777
0.03333333333333335 0.22777777777777777 0.44555555555555565 0.40111111111111114 -0.04999999999999998 0.4166666666666667 0.3888888888888889 -0.4222222222222222
0.6333333333333333 0.4877777777777778 0.32222222222222224 0.30000000000000004 0.6422222222222222 -0.11111111111111112 0.6388888888888888 0.40111111111111114
0.7277777777777779 -0.23333333333333325 0.011111111111111122 0.044444444444444446 0.52 0.06111111111111114 0.2888888888888889 0.45555555555555555
0.31666666666666665 -0.7999999999999999 0.688888888888889 0.22222222222222224 0.5311111111111111 -0.27777777777777773 0.6322222222222224 1.0
0.0555555555555556 0.4055555555555556 -0.28333333333333327 0.34 0.5122222222222222 0.3555555555555556 -0.7555555555555555 0.5211111111111111
0.6155555555555555 0.4977777777777777 0.8055555555555557 0.4411111111111112 0.45888888888888885 -0.33888888888888896 0.5944444444444444 -0.3
0.4033333333333333 0.27 0.6377777777777777 0.20000000000000004 -0.11111111111111106 0.46777777777777785 -0.5055555555555555 0.4055555555555556
-0.04999999999999998 0.6322222222222221 0.5755555555555555 0.6222222222222222 0.24555555555555553 0.5888888888888889 0.611111111111111 -0.43333333333333335
0.5388888888888889 0.5299999999999999 0.37777777777777777 -0.49444444444444446 0.27777777777777785 0.3422222222222222 0.5855555555555556 0.2111111111111111
0.3055555555555556 0.5322222222222223 0.5911111111111111 0.11111111111111115 0.5311111111111111 0.5166666666666667 0.46666666666666673 0.5955555555555555
00000000: 0000 0000 0000 f03f d327 7dd2 277d c2bf
00000010: a470 3d0a d7a3 e03f 2dd8 822d d882 dd3f
00000020: 731c c771 1cc7 d13f 3433 3333 3333 d33f
00000030: 5755 5555 5555 c53f d982 2dd8 822d c83f
00000040: 3433 3333 3333 d33f 075b b005 5bb0 d53f
00000050: 4a9f f449 9ff4 e1bf c116 6cc1 166c e13f
00000060: 85eb 51b8 1e85 e33f 1dc7 711c c771 cc3f
00000070: fba4 4ffa a44f da3f 2dd8 822d d882 dd3f
00000080: d327 7dd2 277d d23f 6cc1 166c c116 dcbf
00000090: a74f faa4 4ffa d43f 0000 0000 0000 0000
000000a0: 287d d227 7dd2 d73f 5d6e 7f90 a1b2 d33f
000000b0: 2df9 c592 5f2c e13f e438 8ee3 388e e33f
000000c0: 1fc7 711c c771 9c3f 9b99 9999 9999 e93f
000000d0: ffff ffff ffff cfbf d069 039d 36d0 d93f
000000e0: 1dc7 711c c771 dc3f 3354 7698 badc de3f
000000f0: 4544 4444 4444 d43f 00df bc9a 7856 e43f
00000100: e438 8ee3 388e d33f 5bb0 055b b005 e33f
00000110: 7877 7777 7777 d73f 1111 1111 1111 c1bf
00000120: 9b99 9999 9999 d93f a391 806f 5e4d dc3f
00000130: 287d d227 7dd2 d73f bcbb bbbb bbbb dbbf
00000140: b005 5bb0 055b d03f b005 5bb0 055b d03f
00000150: 398e e338 8ee3 e83f d782 2dd8 822d e03f
00000160: abaa aaaa aaaa da3f af47 e17a 14ae d73f
00000170: 184b 7eb1 e417 e33f 943e e993 3ee9 d33f
00000180: 9b99 9999 9999 d93f 9999 9999 9999 d93f
00000190: 9b99 9999 9999 e93f 600b b660 0bb6 e03f
000001a0: 055b b005 5bb0 d5bf 1511 1111 1111 913f
000001b0: f549 9ff4 499f d43f 4b9f f449 9ff4 d93f
000001c0: 9b99 9999 9999 e93f 50fa a44f faa4 dfbf
000001d0: 287d d227 7dd2 d73f 1dc7 711c c771 ac3f
000001e0: 4b9f f449 9ff4 d93f a0f4 499f f449 df3f
000001f0: c116 6cc1 166c d13f 398e e338 8ee3 d83f
00000200: e7d5 c4b3 a291 e03f 953e e993 3ee9 e3bf
00000210: 2043 6587 a9cb dd3f 35f1 ac68 24e0 cb3f
00000220: 9999 9999 9999 c93f 0000 0000 0000 f03f
00000230: c871 1cc7 711c e73f 5bb0 055b b005 cbbf
00000240: 186c c116 6cc1 c63f f349 9ff4 499f d4bf
00000250: 5bb0 055b b005 bbbf 8988 8888 8888 d8bf
00000260: d227 7dd2 277d d2bf 7fd2 277d d227 ddbf
00000270: 8fe3 388e e338 e6bf 2222 2222 2222 d23f
00000280: 3b8e e338 8ee3 c83f b005 5bb0 055b e0bf
00000290: 953e e993 3ee9 c33f 7dd2 277d d227 dd3f
000002a0: c871 1cc7 711c e73f efee eeee eeee e6bf
000002b0: 9999 9999 9999 b9bf 3333 3333 3333 d3bf
000002c0: eb6b c116 6cc1 76bf dddd dddd dddd ddbf
000002d0: 106c c116 6cc1 96bf 1111 1111 1111 a1bf
000002e0: 6cc1 166c c116 e4bf 9df4 499f f449 afbf
000002f0: 9b99 9999 9999 e9bf a0f4 499f f449 af3f
00000300: d982 2dd8 822d e03f 7777 7777 7777 c73f
00000310: 9b99 9999 9999 b93f fba4 4ffa a44f e2bf
00000320: 156c c116 6cc1 a6bf 156c c116 6cc1 86bf
00000330: 8de3 388e e338 de3f bbbb bbbb bbbb e3bf
00000340: 90e3 388e e338 debf 600b b660 0bb6 d0bf
00000350: 186c c116 6cc1 a6bf 40e9 933e e993 e6bf
00000360: 9a99 9999 9999 e1bf 2dd8 822d d882 ddbf
00000370: 0d11 1111 1111 a1bf 9799 9999 9999 a9bf
00000380: eb6b c116 6cc1 76bf a64f faa4 4ffa d4bf
00000390: 9b99 9999 9999 c93f 5bb0 055b b005 e3bf
000003a0: c871 1cc7 711c e73f c058 f28b 25bf d83f
000003b0: dfdd dddd dddd bd3f 8888 8888 8888 d83f
000003c0: 711c c771 1cc7 e13f 2322 2222 2222 e2bf
000003d0: f0ee eeee eeee de3f a44f faa4 4ffa e4bf
000003e0: 0f11 1111 1111 a1bf 5155 5555 5555 c5bf
000003f0: 0000 0000 0000 d03f 287d d227 7dd2 d7bf
00000400: c771 1cc7 711c d7bf fba4 4ffa a44f e2bf
00000410: 9df4 499f f449 cfbf 006c c116 6cc1 76bf
00000420: 4344 4444 4444 d4bf 8fe3 388e e338 e6bf
00000430: 731c c771 1cc7 c13f b760 0bb6 600b d6bf
00000440: e438 8ee3 388e e33f c871 1cc7 711c e73f
00000450: 0000 0000 0000 f03f 7fb1 e417 4b7e e13f
00000460: 1dc7 711c c771 bc3f bdbb bbbb bbbb cb3f
00000470: fb6b c116 6cc1 76bf e0dd dddd dddd cd3f
00000480: a1f4 499f f449 af3f 943e e993 3ee9 c3bf
00000490: 8888 8888 8888 e8bf 50fa a44f faa4 e73f
000004a0: 87ca 0e53 97db df3f e7d5 c4b3 a291 e03f
000004b0: e17a 14ae 47e1 e23f 37d0 6903 9d36 e03f
000004c0: 832d d882 2dd8 e23f b760 0bb6 600b e6bf
000004d0: 842d d882 2dd8 d23f e438 8ee3 388e d3bf
000004e0: 97db 1f64 a8ec e03f 963e e993 3ee9 a33f
000004f0: f8e6 d5c4 b3a2 e13f c871 1cc7 711c d73f
00000500: 287d d227 7dd2 d7bf 6766 6666 6666 d63f
00000510: 50fa a44f faa4 e7bf 24e0 9b57 13cf e23f
00000520: a391 806f 5e4d dc3f 398e e338 8ee3 e03f
00000530: dfbc 9a78 5634 e23f 4444 4444 4444 d4bf
00000540: 75b9 fd41 86ca de3f d327 7dd2 277d d23f
00000550: c871 1cc7 711c d73f c116 6cc1 166c e1bf
00000560: b105 5bb0 055b c03f 35f1 ac68 24e0 e33f
00000570: 7877 7777 7777 c73f 388e e338 8ee3 e8bf
00000580: 1311 1111 1111 a13f 7dd2 277d d227 cd3f
00000590: db61 ea72 fb83 dc3f 5734 12f0 cdab d93f
000005a0: 9799 9999 9999 a9bf abaa aaaa aaaa da3f
000005b0: 398e e338 8ee3 d83f 5bb0 055b b005 dbbf
000005c0: 4444 4444 4444 e43f e359 d148 c037 df3f
000005d0: f549 9ff4 499f d43f 3433 3333 3333 d33f
000005e0: 38af 269e 158d e43f 1dc7 711c c771 bcbf
000005f0: 1cc7 711c c771 e43f 5734 12f0 cdab d93f
00000600: a0f4 499f f449 e73f dbdd dddd dddd cdbf
00000610: 1d6c c116 6cc1 863f 176c c116 6cc1 a63f
00000620: a470 3d0a d7a3 e03f a3f4 499f f449 af3f
00000630: d327 7dd2 277d d23f 7dd2 277d d227 dd3f
00000640: 4444 4444 4444 d43f 9999 9999 9999 e9bf
00000650: b760 0bb6 600b e63f 1dc7 711c c771 cc3f
00000660: 5476 98ba dcfe e03f 711c c771 1cc7 d1bf
00000670: e7f6 0719 2a3b e43f 0000 0000 0000 f03f
00000680: 23c7 711c c771 ac3f 4b9f f449 9ff4 d93f
00000690: 2122 2222 2222 d2bf c3f5 285c 8fc2 d53f
000006a0: 0f53 97db 1f64 e03f 186c c116 6cc1 d63f
000006b0: d882 2dd8 822d e8bf 02be 7935 f1ac e03f
000006c0: 5d6e 7f90 a1b2 e33f 85ca 0e53 97db df3f
000006d0: 731c c771 1cc7 e93f e7f6 0719 2a3b dc3f
000006e0: b3a2 9180 6f5e dd3f 075b b005 5bb0 d5bf
000006f0: 5bb0 055b b005 e33f 3333 3333 3333 d3bf
00000700: d069 039d 36d0 d93f 48e1 7a14 ae47 d13f
00000710: bd79 35f1 ac68 e43f 9b99 9999 9999 c93f
00000720: 19c7 711c c771 bcbf 9c78 5634 12f0 dd3f
00000730: d882 2dd8 822d e0bf 4b9f f449 9ff4 d93f
00000740: 9799 9999 9999 a9bf e5f6 0719 2a3b e43f
00000750: 158d 047c f36a e23f 943e e993 3ee9 e33f
00000760: 182a 3b4c 5d6e cf3f 832d d882 2dd8 e23f
00000770: e338 8ee3 388e e33f bcbb bbbb bbbb dbbf
00000780: e993 3ee9 933e e13f f528 5c8f c2f5 e03f
00000790: d882 2dd8 822d d83f 50fa a44f faa4 dfbf
000007a0: 731c c771 1cc7 d13f 3c2b 1a09 f8e6 d53f
000007b0: 6845 2301 dfbc e23f 5bb0 055b b005 cb3f
000007c0: e438 8ee3 388e d33f b3c3 d4e5 f607 e13f
000007d0: 40c8 50d9 61ea e23f 1fc7 711c c771 bc3f
000007e0: 5476 98ba dcfe e03f 8988 8888 8888 e03f
000007f0: dfdd dddd dddd dd3f b9fd 4186 ca0e e33f
